…
这段代码定义了一个一维卷积神经网络架构（ResNet），主要用于处理一维数据。这个网络结构中包含了多个残差块，每个残差块由两个卷积层和一个恒等映射（shortcut）组成。

### 网络架构概述

1. **初始卷积层和批归一化层**：

   - `conv1`: 一个输入通道（通常为单通道的信号数据）到64个输出通道的卷积层，卷积核大小为5，步幅为1，填充为2。
   - `bn1`: 对64个通道的输出进行批归一化。

2. **编码器（encoder）**：

   - `encoder` 是一个由6个 `Sequential` 模块组成的层级结构。每个 `Sequential` 模块包含两个残差块（ResidualBlock）。

3. **残差块（ResidualBlock）**：

   - 每个残差块包含两个卷积层和一个恒等映射（shortcut）。具体结构如下：
     - `conv1` 和 `conv2`: 卷积核大小为5，填充为2，无偏置的卷积层。
     - `bn1` 和 `bn2`: 对每个卷积层输出进行批归一化。
     - `shortcut`: 在输入和输出通道数不同或步幅不同的情况下，使用卷积层和批归一化层调整尺寸。

4. **线性层（linear）**：

   - `linear`: 将编码器的输出特征映射到30个输出特征，通常用于分类任务。

### 详细结构

- **第一层卷积和批归一化**：

  ```python
  (conv1): Conv1d(1, 64, kernel_size=(5,), stride=(1,), padding=(2,), bias=False)
  (bn1): BatchNorm1d(64, eps=1e-05, momentum=0.1, affine=True, track_running_stats=True)
  ```

- **编码器部分（encoder）**：

  - 每个`Sequential`包含两个残差块。残差块中的卷积层和批归一化层配置如下：

    ```python
    (0): Sequential(
      (0): ResidualBlock(
        (conv1): Conv1d(64, 100, kernel_size=(5,), stride=(1,), padding=(2,), bias=False)
        (bn1): BatchNorm1d(100, eps=1e-05, momentum=0.1, affine=True, track_running_stats=True)
        (conv2): Conv1d(100, 100, kernel_size=(5,), stride=(1,), padding=(2,), bias=False)
        (bn2): BatchNorm1d(100, eps=1e-05, momentum=0.1, affine=True, track_running_stats=True)
        (shortcut): Sequential(
          (0): Conv1d(64, 100, kernel_size=(1,), stride=(1,), bias=False)
          (1): BatchNorm1d(100, eps=1e-05, momentum=0.1, affine=True, track_running_stats=True)
        )
      )
      (1): ResidualBlock(
        (conv1): Conv1d(100, 100, kernel_size=(5,), stride=(1,), padding=(2,), bias=False)
        (bn1): BatchNorm1d(100, eps=1e-05, momentum=0.1, affine=True, track_running_stats=True)
        (conv2): Conv1d(100, 100, kernel_size=(5,), stride=(1,), padding=(2,), bias=False)
        (bn2): BatchNorm1d(100, eps=1e-05, momentum=0.1, affine=True, track_running_stats=True)
        (shortcut): Sequential()
      )
    )
    ```

- **最后的线性层**：

  ```python
  (linear): Linear(in_features=3200, out_features=30, bias=True)
  ```

#### 关键点

1. **残差连接**：通过恒等映射（shortcut）解决梯度消失问题，允许训练更深的网络。
2. **卷积层**：使用多个卷积层提取特征，尤其是卷积核大小为5的卷积层。
3. **批归一化**：在每个卷积层之后使用批归一化层，提高训练的稳定性和速度。
4. **线性层**：最后的线性层将特征映射到30个输出，用于分类或其他任务。

这个 ResNet 变体是一个较为复杂的一维卷积神经网络，适用于处理序列数据或时间序列数据，并具有强大的特征提取和分类能力。

## 使用模型提取特征

### 切换工作模式

在 PyTorch 中，你可以通过检查模型的 `.training` 属性来查看模型当前是在训练模式还是在评估模式。这个属性是一个布尔值，当模型处于训练模式时为 `True`，而在评估模式（也就是说，进行推理时）为 `False`。
…
